models/fnocg_thermal_2d_per_15l_jit.pt (torch, 766935 bytes, 5 tensors)

weight f4 [1, 8, 2, 2]
0	0x390a7e6e	0.00013207804
1	0x3a01376f	0.000492922
2	0xb90a7e6e	-0.00013207804
3	0xba01376f	-0.000492922
4	0x390a7e6e	0.00013207804
5	0xb90a7e6e	-0.00013207804
6	0x3a01376f	0.000492922
7	0xba01376f	-0.000492922
8	0x3a01376f	0.000492922
9	0x390a7e6e	0.00013207804
10	0xba01376f	-0.000492922
11	0xb90a7e6e	-0.00013207804
12	0x390a7e6e	0.00013207804
13	0xb90a7e6e	-0.00013207804
14	0x3a01376f	0.000492922
15	0xba01376f	-0.000492922
16	0x390a7e6e	0.00013207804
17	0x3a01376f	0.000492922
18	0xb90a7e6e	-0.00013207804
19	0xba01376f	-0.000492922
20	0x3a01376f	0.000492922
21	0xba01376f	-0.000492922
22	0x390a7e6e	0.00013207804
23	0xb90a7e6e	-0.00013207804
24	0x3a01376f	0.000492922
25	0x390a7e6e	0.00013207804
26	0xba01376f	-0.000492922
27	0xb90a7e6e	-0.00013207804
28	0x3a01376f	0.000492922
29	0xba01376f	-0.000492922
30	0x390a7e6e	0.00013207804
31	0xb90a7e6e	-0.00013207804

weight f4 [8, 1, 2, 2]
0	0xc39dbc2b	-315.47006
1	0xc2a90f55	-84.529945
2	0x439dbc2b	315.47006
3	0x42a90f55	84.529945
4	0xc39dbc2b	-315.47006
5	0x439dbc2b	315.47006
6	0xc2a90f55	-84.529945
7	0x42a90f55	84.529945
8	0xc2a90f55	-84.529945
9	0xc39dbc2b	-315.47006
10	0x42a90f55	84.529945
11	0x439dbc2b	315.47006
12	0xc39dbc2b	-315.47006
13	0x439dbc2b	315.47006
14	0xc2a90f55	-84.529945
15	0x42a90f55	84.529945
16	0xc39dbc2b	-315.47006
17	0xc2a90f55	-84.529945
18	0x439dbc2b	315.47006
19	0x42a90f55	84.529945
20	0xc2a90f55	-84.529945
21	0x42a90f55	84.529945
22	0xc39dbc2b	-315.47006
23	0x439dbc2b	315.47006
24	0xc2a90f55	-84.529945
25	0xc39dbc2b	-315.47006
26	0x42a90f55	84.529945
27	0x439dbc2b	315.47006
28	0xc2a90f55	-84.529945
29	0x42a90f55	84.529945
30	0xc39dbc2b	-315.47006
31	0x439dbc2b	315.47006

weight f4 [1, 8, 2, 2]
0	0x390a7e6e	0.00013207804
1	0x3a01376f	0.000492922
2	0xb90a7e6e	-0.00013207804
3	0xba01376f	-0.000492922
4	0x390a7e6e	0.00013207804
5	0xb90a7e6e	-0.00013207804
6	0x3a01376f	0.000492922
7	0xba01376f	-0.000492922
8	0x3a01376f	0.000492922
9	0x390a7e6e	0.00013207804
10	0xba01376f	-0.000492922
11	0xb90a7e6e	-0.00013207804
12	0x390a7e6e	0.00013207804
13	0xb90a7e6e	-0.00013207804
14	0x3a01376f	0.000492922
15	0xba01376f	-0.000492922
16	0x390a7e6e	0.00013207804
17	0x3a01376f	0.000492922
18	0xb90a7e6e	-0.00013207804
19	0xba01376f	-0.000492922
20	0x3a01376f	0.000492922
21	0xba01376f	-0.000492922
22	0x390a7e6e	0.00013207804
23	0xb90a7e6e	-0.00013207804
24	0x3a01376f	0.000492922
25	0x390a7e6e	0.00013207804
26	0xba01376f	-0.000492922
27	0xb90a7e6e	-0.00013207804
28	0x3a01376f	0.000492922
29	0xba01376f	-0.000492922
30	0x390a7e6e	0.00013207804
31	0xb90a7e6e	-0.00013207804

0 f4 [1, 1, 400, 201]
0	0x00000000	0.0
1	0x45e647b8	7368.965
2	0x44e64b5b	1842.3549
3	0x444cba26	818.90857
4	0x43e659e8	460.7024
5	0x439373b9	294.90408
6	0x434cd741	204.84084
7	0x4316891a	150.53555
8	0x42e69425	115.289345
9	0x42b63fd5	91.12467
10	0x4293adff	73.839836
11	0x42743440	61.051025
12	0x424d4be1	51.3241
13	0x422f0461	43.754276
14	0x4216fdd1	37.747868
15	0x42039bdf	32.902218
16	0x41e77dcb	28.936422
17	0x41cd328c	25.649681
18	0x41b729ba	22.895374
19	0x41a483ed	20.564417
20	0x4194982a	18.574299
21	0x4186e4b3	16.86167
22	0x41760932	15.377245
23	0x416150bf	14.082213
24	0x414f217e	12.945677
25	0x413f15ad	11.942792
26	0x4130dab9	11.053399
27	0x41242d0e	10.261
28	0x4118d4f2	9.551989
29	0x410ea41c	8.915066
30	0x410573d9	8.340783
31	0x40fa472d	7.8211884
32	0x40eb2f8f	7.3495555
33	0x40dd71f3	6.92016
34	0x40d0e640	6.5281067
35	0x40c56a02	6.1691904
36	0x40badf7e	5.8397818
37	0x40b12cec	5.5367336
38	0x40a83be1	5.2573094
39	0x409ff8c5	4.9991174
40	0x4098526d	4.7600617
41	0x409139bf	4.538299
42	0x408aa166	4.332202
43	0x40847d99	4.1403317
44	0x407d87ba	3.961409
45	0x4072d5c3	3.794297
46	0x4068d4aa	3.63798
47	0x405f758c	3.4915495
48	0x4056ab0f	3.3541906
49	0x404e6934	3.225171
50	0x4046a529	3.1038306
51	0x403f552a	2.989573
52	0x40387063	2.8818595
53	0x4031eed0	2.780201
54	0x402bc92b	2.6841533
55	0x4025f8d7	2.593313
56	0x402077ca	2.5073113
57	0x401b4082	2.4258122
58	0x40164df5	2.3485081
59	0x40119b86	2.2751174
60	0x400d24fa	2.2053819
61	0x4008e66c	2.1390638
62	0x4004dc49	2.0759451
63	0x40010345	2.0158246
64	0x3ffab0ac	1.9585166
65	0x3ff3b158	1.9038496
66	0x3fed035d	1.8516651
67	0x3fe6a1ed	1.8018166
68	0x3fe08890	1.7541676
69	0x3fdab325	1.708592
70	0x3fd51dd3	1.6649727
71	0x3fcfc507	1.6232003
72	0x3fcaa56c	1.5831733
73	0x3fc5bbe9	1.5447971
74	0x3fc10599	1.5079833
75	0x3fbc7fc7	1.4726495
76	0x3fb827ee	1.4387186
77	0x3fb3fbb0	1.4061184
78	0x3faff8d8	1.3747816
79	0x3fac1d52	1.3446448
80	0x3fa8672d	1.3156487
81	0x3fa4d497	1.2877377
82	0x3fa163d8	1.2608595
83	0x3f9e1354	1.2349648
84	0x3f9ae187	1.2100075
85	0x3f97cd04	1.1859441
86	0x3f94d472	1.1627333
87	0x3f91f68e	1.1403368
88	0x3f8f3224	1.1187177
89	0x3f8c8615	1.0978419
90	0x3f89f14f	1.0776767
91	0x3f8772d1	1.0581914
92	0x3f8509a5	1.0393568
93	0x3f82b4e6	1.0211456
94	0x3f8073b9	1.0035316
95	0x3f7c8a9c	0.98649
96	0x3f7851c3	0.9699976
97	0x3f743b70	0.95403194
98	0x3f704644	0.93857217
99	0x3f6c70ee	0.9235982
100	0x3f68ba2f	0.90909094
101	0x3f6520d7	0.89503235
102	0x3f61a3c7	0.8814053
103	0x3f5e41ec	0.8681934
104	0x3f5afa41	0.8553811
105	0x3f57cbce	0.84295356
106	0x3f54b5a4	0.8308966
107	0x3f51b6e3	0.8191969
108	0x3f4eceb4	0.80784154
109	0x3f4bfc48	0.79681826
110	0x3f493edb	0.78611535
111	0x3f4695b4	0.7757218
112	0x3f44001e	0.7656268
113	0x3f417d6e	0.75582016
114	0x3f3f0d03	0.7462923
115	0x3f3cae3f	0.7370338
116	0x3f3a608d	0.72803575
117	0x3f38235f	0.7192897
118	0x3f35f62c	0.71078753
119	0x3f33d870	0.7025213
120	0x3f31c9ae	0.69448364
121	0x3f2fc96f	0.6866674
122	0x3f2dd73f	0.67906564
123	0x3f2bf2af	0.6716718
124	0x3f2a1b56	0.6644796
125	0x3f2850cf	0.65748304
126	0x3f2692b7	0.6506762
127	0x3f24e0b2	0.6440536
128	0x3f233a66	0.63760984
129	0x3f219f7c	0.6313398
130	0x3f200fa2	0.62523854
131	0x3f1e8a88	0.6193013
132	0x3f1d0fe3	0.61352366
133	0x3f1b9f67	0.60790104
134	0x3f1a38d0	0.6024294
135	0x3f18dbd9	0.5971046
136	0x3f178841	0.5919228
137	0x3f163dc9	0.58688027
138	0x3f14fc35	0.5819734
139	0x3f13c34a	0.5771986
140	0x3f1292d2	0.5725528
141	0x3f116a96	0.5680326
142	0x3f104a63	0.56363505
143	0x3f0f3206	0.55935705
144	0x3f0e2150	0.5551958
145	0x3f0d1812	0.55114853
146	0x3f0c1621	0.54721266
147	0x3f0b1b52	0.5433856
148	0x3f0a277a	0.53966486
149	0x3f093a74	0.5360482
150	0x3f085417	0.5325331
151	0x3f077441	0.52911764
152	0x3f069acc	0.5257995
153	0x3f05c798	0.5225768
154	0x3f04fa84	0.51944757
155	0x3f04336f	0.5164098
156	0x3f03723b	0.51346177
157	0x3f02b6cc	0.51060176
158	0x3f020105	0.50782806
159	0x3f0150ca	0.505139
160	0x3f00a602	0.5025331
161	0x3f000094	0.5000088
162	0x3efec0cf	0.49756476
163	0x3efd8aca	0.4951995
164	0x3efc5eee	0.49291176
165	0x3efb3d0f	0.49070022
166	0x3efa2504	0.48856366
167	0x3ef916a5	0.4865009
168	0x3ef811ce	0.48451084
169	0x3ef71659	0.48259237
170	0x3ef62423	0.48074445
171	0x3ef53b0c	0.47896612
172	0x3ef45af4	0.47725642
173	0x3ef383bb	0.4756144
174	0x3ef2b545	0.47403923
175	0x3ef1ef76	0.47253007
176	0x3ef13233	0.4710861
177	0x3ef07d63	0.46970662
178	0x3eefd0ef	0.4683909
179	0x3eef2cbf	0.46713826
180	0x3eee90bd	0.46594802
181	0x3eedfcd5	0.46481958
182	0x3eed70f5	0.46375242
183	0x3eeced08	0.4627459
184	0x3eec70ff	0.4617996
185	0x3eebfcc9	0.46091297
186	0x3eeb9058	0.46008563
187	0x3eeb2b9d	0.45931712
188	0x3eeace8b	0.45860705
189	0x3eea7917	0.4579551
190	0x3eea2b35	0.4573609
191	0x3ee9e4dc	0.45682418
192	0x3ee9a602	0.45634466
193	0x3ee96ea0	0.45592213
194	0x3ee93eae	0.45555633
195	0x3ee91627	0.45524713
196	0x3ee8f506	0.45499438
197	0x3ee8db45	0.4547979
198	0x3ee8c8e2	0.4546576
199	0x3ee8bddb	0.45457348
200	0x3ee8ba2f	0.45454547
201	0x45e647b8	7368.965
202	0x45664a25	3684.634
203	0x44b83ece	1473.9626
204	0x443843d9	737.0601
205	0x43d8d060	433.62793
206	0x438dca12	283.57867
207	0x43475112	199.31668
208	0x431388a8	147.53381
209	0x42e30b91	113.52259
210	0x42b409ad	90.0189
211	0x429239f9	73.11323
212	0x427237a0	60.55432
213	0x424be4a0	50.973267
214	0x422dff8f	43.49957
215	0x42163bf8	37.558563
216	0x420308db	32.758648
217	0x41e69ad4	28.8256
218	0x41cc80a0	25.562805
219	0x41b69c53	22.82633
220	0x41a4122b	20.508871
221	0x41943ba2	18.529118
222	0x418698b1	16.824556
223	0x41758b32	15.346483
224	0x4160e774	14.056507
225	0x414ec8d9	12.924035
226	0x413eca89	11.924447
227	0x41309aa0	11.03775
228	0x4123f60f	10.247573
229	0x4118a581	9.540406
230	0x410e7afc	8.9050255
231	0x41055006	8.332037
232	0x40fa0881	7.813538
233	0x40eaf883	7.342836
234	0x40dd416a	6.914235
235	0x40d0bb4f	6.522865
236	0x40c543e3	6.164537
237	0x40babd8a	5.835637
238	0x40b10e98	5.5330315
239	0x40a820b6	5.253993
240	0x409fe05f	4.996139
241	0x40983c75	4.75738
242	0x409125eb	4.5358787
243	0x408a8f77	4.330013
244	0x40846d56	4.1383467
245	0x407d6a30	3.9596062
246	0x4072bae0	3.792656
247	0x4068bc26	3.6364837
248	0x405f5f28	3.4901829
249	0x40569693	3.3529403
250	0x404e566e	3.2240252
251	0x404693ee	3.102779
252	0x403f4554	2.9886065
253	0x403861cf	2.8809698
254	0x4031e160	2.7793808
255	0x402bbcc5	2.6833966

weight f4 [8, 1, 2, 2]
0	0xc39dbc2b	-315.47006
1	0xc2a90f55	-84.529945
2	0x439dbc2b	315.47006
3	0x42a90f55	84.529945
4	0xc39dbc2b	-315.47006
5	0x439dbc2b	315.47006
6	0xc2a90f55	-84.529945
7	0x42a90f55	84.529945
8	0xc2a90f55	-84.529945
9	0xc39dbc2b	-315.47006
10	0x42a90f55	84.529945
11	0x439dbc2b	315.47006
12	0xc39dbc2b	-315.47006
13	0x439dbc2b	315.47006
14	0xc2a90f55	-84.529945
15	0x42a90f55	84.529945
16	0xc39dbc2b	-315.47006
17	0xc2a90f55	-84.529945
18	0x439dbc2b	315.47006
19	0x42a90f55	84.529945
20	0xc2a90f55	-84.529945
21	0x42a90f55	84.529945
22	0xc39dbc2b	-315.47006
23	0x439dbc2b	315.47006
24	0xc2a90f55	-84.529945
25	0xc39dbc2b	-315.47006
26	0x42a90f55	84.529945
27	0x439dbc2b	315.47006
28	0xc2a90f55	-84.529945
29	0x42a90f55	84.529945
30	0xc39dbc2b	-315.47006
31	0x439dbc2b	315.47006
