models/vrnn_thermal_2d_per_jit.pt (torch, 308353 bytes, 32 tensors)

weight f4 [256, 53]
000000 d9 b0 a8 bc 0b 09 de bd 2a 41 b0 bc c2 31 7e 3e
       -0.02059214 -0.108415686 -0.021515448 0.24823669
000010 8c 7a 10 be af 52 24 3e f8 03 dd be a7 64 9e 40
       -0.14109248 0.16047166 -0.4316709 4.9497867
000020 56 3e 72 3e e9 46 bb bf c9 c6 a7 be 46 8a ab 3d
       0.23656592 -1.4631015 -0.3276885 0.08375983
000030 dd 01 a3 bc 7f fb 44 3f 58 26 02 bb 8e 18 0e 3e
       -0.01989835 0.7694625 -0.001985928 0.13876554
000040 37 5f ed bc 75 90 98 be e9 1e 13 be 46 ab 9e bf
       -0.028976066 -0.29797712 -0.1436726 -1.2396019
000050 80 20 4d 3c 5d 41 24 bf 6f 0e e1 bd d2 c0 01 be
       0.012519956 -0.64162236 -0.10989081 -0.12671211
000060 2e 22 bc 3c 80 4c 8d 3d 7e 37 a1 bf f9 b2 d6 3d
       0.022965517 0.06899357 -1.259506 0.10483355
000070 cb 7b c1 3d a2 d7 96 bc 34 22 6c be 50 3c 22 3a
       0.0944744 -0.018413369 -0.23059922 0.0006188797
000080 46 95 44 3e 13 1a 69 3d 61 34 4d be 70 90 33 be
       0.19197568 0.056909632 -0.20039512 -0.17535567
000090 61 d6 90 3e 23 eb 11 bf 2e dd b8 bc 41 48 db bd
       0.28288558 -0.56999415 -0.022566404 -0.10707141
0000a0 e4 57 2e be d7 05 1d bd 77 24 58 bd e9 d4 30 be
       -0.17025715 -0.038335647 -0.05276915 -0.17268719
0000b0 2a 26 ae bb 53 a3 cb bd 8e 9e 87 bd ff 96 1d 3e
       -0.005314608 -0.09943261 -0.06622039 0.15389632
0000c0 71 e5 b5 bd 53 90 ef 3c d4 6c a9 3d 2e 96 a8 3d
       -0.08881653 0.029243624 0.082727104 0.082317695
0000d0 8f cb 15 be 30 40 c7 3e 32 63 de bd ed 10 ae 3b
       -0.14628433 0.3891616 -0.10858764 0.0053120763
0000e0 3d 29 88 3c 69 1a ab 3e bd a7 bc 3e 41 e1 18 be
       0.016621226 0.33418587 0.36846724 -0.14929678
0000f0 e8 ea d7 3d eb 3d ae 3e 45 10 ba 3e ec 0b 88 3d
       0.10542852 0.34031615 0.36340538 0.06642899
000100 e7 76 7f 3e 59 30 38 3d fd 99 95 3e 15 de f4 3d
       0.24947701 0.044967983 0.29219046 0.11956421
000110 e2 9f 90 be f6 92 80 be 12 bf 71 bc e9 ac 8a be
       -0.2824698 -0.25112122 -0.014755027 -0.27085045
000120 29 63 fd 3d d7 c9 8f be 32 a6 ed 3b e7 b0 a9 bd
       0.12372429 -0.2808368 0.007252478 -0.082856946
000130 69 66 f4 3d 75 b8 45 be 1e 4f c0 bd 81 93 66 bd
       0.11933596 -0.19308646 -0.093900904 -0.056293014
000140 50 01 85 3d 66 cb f1 bd fa ca b7 3e a3 11 f9 be
       0.06494391 -0.11806373 0.35897046 -0.48646268
000150 ce db 49 be 70 d2 63 3c b2 a1 02 be 6e dc 20 be
       -0.19712755 0.013905153 -0.12756994 -0.15709087
000160 c3 60 e8 3d 15 2a fd bd cb a0 a6 3d ef 1e a6 be
       0.11346581 -0.12361542 0.081361376 -0.32445475
000170 74 dd 1c 3e 7b eb fc 3d f0 ab 89 3d ec 45 a2 be
       0.15318853 0.12349602 0.067222476 -0.3169397
000180 c4 d5 05 bf 89 59 82 3b 0b 00 84 3d ba ee 2c be
       -0.52279305 0.0039779586 0.06445321 -0.16887942
000190 08 7b 56 3e 4f aa 9a bd 9d 72 41 be b0 ee a2 3e
       0.2094537 -0.07552015 -0.18891378 0.3182273
0001a0 23 89 eb be 3c cd ac 3d e3 5f 4c 3c 4c 72 c7 3d
       -0.46003065 0.08437583 0.012474033 0.09738597
0001b0 db 8c b8 bd 3f 8a 8a c0 13 be 28 be 18 6d 2a bd
       -0.09011241 -4.3293757 -0.16478758 -0.041607946
0001c0 1c c4 5f bd 7c 25 13 bd 71 44 d0 3d 90 3c 40 3e
       -0.054630384 -0.03592442 0.10169304 0.18773103
0001d0 c7 71 84 3c a2 d9 2a be ec b4 08 3e 96 a6 fa bd
       0.016167535 -0.16684583 0.13350266 -0.12238805
0001e0 47 c0 07 3e de 87 09 be 02 b8 5e 3d f8 62 47 bd
       0.13256942 -0.13430735 0.054374702 -0.04867837
0001f0 3d 69 38 3e b1 ca 26 bc f0 8b 59 3e 6c db 0a bc
       0.18008895 -0.010180161 0.21244788 -0.008475166
000200 e8 91 13 3d fb 03 26 be 26 31 61 bd 32 80 a4 bd
       0.03602782 -0.16212456 -0.054978512 -0.08032264
000210 d2 bc 24 3e 2f 8a 1e 3e c6 ea 19 3e eb e4 d6 3d
       0.16087654 0.154824 0.15030965 0.104928814
000220 d9 74 7a 3d 21 6f d8 3d ba 08 da bc 6a 86 b1 3d
       0.06114659 0.10568071 -0.02661549 0.086682156
000230 75 de c9 bd e4 36 b1 bc 03 73 d1 bd ab 95 0d be
       -0.098568834 -0.02163262 -0.10227015 -0.13826625
000240 ae d2 c3 bc b7 73 26 3d 44 ac 39 3e 2e 83 0a 3d
       -0.02390417 0.040637698 0.1813212 0.03381651
000250 93 f6 28 3e 0d 3d b8 3d d5 da 29 be 77 13 ff 3d
       0.1650031 0.089960195 -0.16587384 0.124548845
000260 aa 02 5f bd 2d 5d d6 3d f6 80 d3 3c 7d d9 d9 bc
       -0.0544459 0.104669906 0.02581833 -0.026592964
000270 d4 f8 bf 3c 9c c1 b2 be a1 8f 08 be 01 f2 04 be
       0.02343408 -0.34913337 -0.1333604 -0.12982942
000280 e1 18 5a bd 8d e0 e0 be e6 3e 73 bd 0d 7b e5 3c
       -0.053246383 -0.4392132 -0.059386156 0.028012777
000290 3a e7 58 3f 9e b0 81 bd 4c ba 9a bc af 04 9a be
       0.84727824 -0.06332515 -0.018887661 -0.30081698
0002a0 05 2a bc 3d 93 13 79 bd 06 6e 48 3f 10 44 46 3f
       0.09187702 -0.060809683 0.7829288 0.77447605
0002b0 74 91 f4 3d 83 9b b1 bc 53 03 74 3d 87 b5 bf 3c
       0.119418055 -0.0216806 0.059573483 0.023401989
0002c0 b5 b8 b4 bc 2f e9 02 3e 33 5e 68 be a5 c9 bd 3c
       -0.022060731 0.12784265 -0.22692184 0.02316744
0002d0 75 19 9b 3d d9 0b c7 bc 4a a7 ca bd c1 26 10 3e
       0.07573215 -0.024297642 -0.09895189 0.14077283
0002e0 f7 f5 3b be bb 56 a7 3e e3 14 85 be 14 a9 3e 3d
       -0.18355547 0.32683358 -0.25992498 0.046547964
0002f0 39 f7 f2 bb af 57 8b 3d 71 7e 35 3e f9 44 f8 3d
       -0.007414725 0.06803834 0.17724015 0.121225305
000300 ac 90 f7 3e 24 8c 05 3f 78 fc 8f 3e 42 1d b2 be
       0.48352563 0.5216696 0.28122306 -0.34787947
000310 ed 6a be 3d b1 df c4 3c 30 41 72 bf 8e f3 9d 3d
       0.09297738 0.024032446 -0.9463072 0.0771247
000320 cd ce a2 be 6a 46 32 3e a0 bc 13 bf 4c 30 5e be
       -0.317984 0.17409673 -0.57709694 -0.21698111
000330 21 05 ac bf a3 b6 ee be a0 dd f6 be ca 5f 61 bf
       -1.3439065 -0.46623716 -0.4821596 -0.8803679
000340 7e 16 ab be 11 75 0e bf be be 1e 3f c9 6a bc bf
       -0.33415598 -0.5564738 0.620098 -1.4720088
000350 fc b1 ae 3d 6f 60 0f be c1 65 f5 bd c7 8b 23 be
       0.085300416 -0.1400163 -0.11982299 -0.1597129
000360 b3 e3 58 3e 1d 7b 22 3e 1b 3b a8 3d 08 9d 0e 40
       0.2118061 0.15867276 0.082143985 2.2283344
000370 cc e4 7b be 5c 50 28 3e 5b 9a e4 bd cd 3d 6b bc
       -0.24598998 0.16436905 -0.111622535 -0.014357996
000380 3e 1a de 3d d7 49 33 3f b1 32 79 bd 60 7e 61 be
       0.10844849 0.70034546 -0.06083936 -0.22020864
000390 f9 c0 1c 3e cd 35 fd bd 45 b1 d1 3e 97 76 f3 bc
       0.15307988 -0.12363777 0.40955558 -0.029719634
0003a0 72 a5 9b 3e 0e 0f ef bd 16 a4 bc 3c 00 26 59 bd
       0.30399662 -0.11672793 0.023027461 -0.053014755
0003b0 77 09 cd bc 97 3d 9d bd ee 3e 44 bd 13 4d 8a be
       -0.025028927 -0.07677763 -0.047911577 -0.27011928
0003c0 1f 96 12 be 09 bb 51 be 3d 0a 11 be 77 29 29 be
       -0.14315079 -0.20481504 -0.14164062 -0.16519724
0003d0 c4 2c f1 3d c7 b2 67 be 88 c5 b8 bd 74 08 8b bc
       0.117761165 -0.22626792 -0.09022051 -0.016971804
0003e0 ef fc 6b bd ba af 0e 3e a5 fe 03 be 31 1f b7 be
       -0.057614263 0.13934222 -0.12890108 -0.35765985
0003f0 2a 90 e9 be e7 d2 25 3e f5 b4 f0 bd 60 4b 56 be
       -0.456178 0.16193734 -0.11753265 -0.20927191

bias f4 [256]
000000 84 94 9a 3d 05 50 cc 3b ec 91 04 be b1 76 48 bd
       0.07547858 0.006235125 -0.1294629 -0.048941318
000010 78 2e a9 3d b6 2d 04 bd 3d fa 04 3e 9d ef 89 bd
       0.08260816 -0.032270156 0.12986083 -0.06735156
000020 2e 4f 25 3d 72 fd a0 bd 5b 74 55 bc 2f a7 a6 3d
       0.040358715 -0.07860841 -0.01302823 0.081373565
000030 2f 15 22 3d c5 e1 84 bd 01 47 f6 bd 94 15 b6 bd
       0.039570983 -0.064883746 -0.12025262 -0.088908345
000040 47 07 f2 3d fa 57 dd bc 2b f5 8a 3c e8 ce a1 bd
       0.11817794 -0.02701949 0.016962608 -0.07900792
000050 9d 0c f9 3d 87 18 a4 3d 96 f0 20 bd 6a e8 d0 3d
       0.12160609 0.08012491 -0.03929194 0.102005795
000060 d1 47 ec bd 91 0f 04 bd a0 63 01 3e 10 0d 25 3a
       -0.115371354 -0.032241408 0.1263566 0.0006296197
000070 81 0e 00 be c2 f4 76 3d 99 59 c7 bd 51 48 05 be
       -0.12505533 0.060292013 -0.09733886 -0.13015868
000080 ce f1 d2 3d ed 02 66 bc 8a 8e b9 3c aa 17 11 3d
       0.10300027 -0.0140387835 0.022650976 0.03542296
000090 6e 80 8b 3d 82 3f 01 be ee 51 02 be 46 f1 7f 3c
       0.068116054 -0.12621883 -0.12726566 0.015621489
0000a0 7e 23 35 bd 1d e5 b5 bd 51 6a 67 3c 46 38 81 3d
       -0.0442233 -0.088815905 0.014124469 0.063095614
0000b0 e0 09 8a bd a8 13 05 bc 63 40 ca bd 2b f0 39 bd
       -0.06740165 -0.008122362 -0.09875562 -0.045395058
0000c0 62 ca a6 bd 65 19 82 bc d1 c8 7f 3d 80 42 71 3d
       -0.0814407 -0.01588125 0.062447373 0.05890131
0000d0 b5 c7 57 bd 52 ba d2 3d 4e ef 72 3d 8e 71 67 bc
       -0.05268069 0.10289444 0.05931025 -0.014126195
0000e0 26 f9 9d bc 89 4c 8c 3c e9 9f 5f ba b6 26 9a bd
       -0.019283842 0.017126339 -0.00085306034 -0.07526915
0000f0 64 65 06 3e f3 5e ce 3d d6 f6 ca 3d 41 0d 31 3d
       0.13124615 0.10076704 0.099103615 0.04322553
000100 e8 90 2b 3d c4 2e 7b 3c 1c e5 4d 3d de b9 38 3d
       0.04188624 0.015330974 0.050267324 0.04509913
000110 48 b6 28 3d 03 15 38 bc 9f dd cb 3d 2b c9 09 3e
       0.041189462 -0.011235478 0.0995438 0.13455646
000120 ce 0b 71 bc 0e 70 97 bd fe e3 50 bd b7 45 d7 bc
       -0.014712287 -0.073944196 -0.05099868 -0.02627836
000130 06 0b 16 3d 5f e6 86 3d 01 3d d3 bd 61 0c 9d 3c
       0.036631607 0.065869085 -0.1031437 0.019170942
000140 c6 25 99 bd 07 6c b5 3d 94 37 a9 3d 14 55 f0 3d
       -0.07477908 0.08858495 0.08262554 0.11734977
000150 e1 39 93 3d b2 b7 14 3d b9 f3 cb 3d 5d 71 4c bc
       0.07188774 0.036307998 0.09958596 -0.0124782
000160 a1 e5 3c bd b2 c1 87 bd b2 2e 34 bd 99 d0 98 3d
       -0.04611743 -0.06628741 -0.043989845 0.07461662
000170 2d 96 c4 bd f4 84 ae bd fd 74 10 3d a6 b7 00 3e
       -0.09598956 -0.085214525 0.03526782 0.12570056
000180 f8 e2 04 3e 7d 4e fe bd 14 69 05 be 47 f4 ef bd
       0.12977207 -0.12417314 -0.13028365 -0.11716514
000190 75 8b fa 3c 3c 09 ee bc 62 98 2d 3d de 52 a9 bd
       0.030584076 -0.029057138 0.04238165 -0.08267759
0001a0 44 ce a7 bd 27 25 32 3b 80 2f 77 3d 96 62 bf 3d
       -0.08193639 0.002718279 0.060348034 0.09344976
0001b0 61 a9 3c 3d 4f 15 a2 bd e3 39 c9 3d 9e eb e4 bd
       0.04605997 -0.079142205 0.09825494 -0.11177753
0001c0 33 71 d7 3b 57 98 ba bd ad 61 f8 3d 2a 64 e3 3d
       0.0065747737 -0.09111088 0.12128005 0.11103089
0001d0 6c b1 64 3b 7a 25 e3 bd 5f 2a fd 3d 11 ff 8d ba
       0.003489579 -0.110911325 0.12361597 -0.0010833462
0001e0 e4 fa fa 3d 0b 19 d8 bd 24 c6 b1 bd 3a 55 84 bd
       0.12254885 -0.105516516 -0.086803705 -0.06461568
0001f0 56 b0 b8 bd 99 06 91 bd 23 0d c1 bc 21 43 18 bd
       -0.090180084 -0.070813365 -0.023565834 -0.037173394
000200 c4 db a9 bc 85 64 cb bd 68 10 64 bd 47 85 eb bb
       -0.020734675 -0.09931282 -0.05567971 -0.0071875188
000210 00 1c 8a 3d 67 52 c6 b9 57 6d b7 bd 36 35 31 bd
       0.06743622 -0.00037826897 -0.08956402 -0.043263637
000220 b7 94 aa bd 7b d0 a8 3d c1 0f a5 bd 2c 3e c5 bd
       -0.08329146 0.082428895 -0.080596454 -0.09630999
000230 2e e7 e8 bd a0 ac 49 3d 3b b2 09 bd b5 75 10 bd
       -0.11372219 0.049236894 -0.03361724 -0.035268504
000240 e6 80 b3 bd 9a 0b e4 bd dc ed 91 bd ab e3 0f bb
       -0.0876482 -0.11135025 -0.07125446 -0.002195577
000250 ae 65 9c bd e5 49 16 3c 68 c5 38 3d c3 cd 30 bd
       -0.07636581 0.009172891 0.045110136 -0.04316498
000260 d3 96 08 bd e0 d8 bd bc a7 4f 8d 3c 13 fc c0 bc
       -0.033346962 -0.023174703 0.017249895 -0.023557698
000270 a1 37 ed 3b 11 b8 b2 3c da f0 87 3d ed f2 05 3e
       0.0072392975 0.021816285 0.06637736 0.1308095
000280 81 f8 c0 bd 92 bd 8c 3a be ef 5d 3d d5 fa a9 bd
       -0.09422398 0.0010737649 0.054183714 -0.082997955
000290 80 dc e7 3d 8d 13 9b bd 65 1b fd 3d 6b 9d b0 bd
       0.11321354 -0.075720884 0.12358741 -0.08623775
0002a0 1a f0 68 3d c5 75 77 bc a9 2f 61 3b 5c c7 39 bd
       0.056869604 -0.015103762 0.0034360683 -0.04535614
0002b0 4b de 8b bd a5 07 30 bd 8b 84 9f bc a6 c5 dc bd
       -0.068295084 -0.04297604 -0.019472381 -0.10779886
0002c0 bc 4d ce bb d8 a4 b8 3d 31 23 85 bd f8 f1 1f 3c
       -0.0062958878 0.090158165 -0.06500853 0.00976228
0002d0 c8 59 e3 3d 4c 7f a6 bd b0 ac ff 3d d5 c3 16 3d
       0.11101109 -0.08129749 0.124841094 0.036807854
0002e0 de dd 17 bd ff 74 54 bd 54 73 0c be bd ec b0 3d
       -0.037076823 -0.05186939 -0.13715869 0.08638904
0002f0 de 6d 05 3e 18 c3 27 3c 9e 26 75 bd bb 12 92 3d
       0.13030192 0.010239385 -0.05985128 0.07132479
000300 96 82 b5 3d fe 94 ef 3b cb ea 8d 3c fd 2c 9d 3a
       0.08862798 0.0073114624 0.017323872 0.0011991557
000310 c4 93 25 3c d8 a3 76 bd bd 18 5e bd aa 57 d4 bc
       0.010106031 -0.060214847 -0.05422281 -0.025920708
000320 16 44 0f bc 8d e4 00 be 00 9b e1 bb b7 08 c0 3d
       -0.00874426 -0.12587185 -0.0068849325 0.09376662
000330 43 06 da bd 5a a1 72 3d 6b 29 9f bd 7b 67 fc bd
       -0.106457256 0.059235908 -0.07771572 -0.12324425
000340 88 63 92 bd 7a 50 0d bd 61 9a 09 be 8c 17 a2 bd
       -0.0714789 -0.034500577 -0.13437797 -0.079146475
000350 10 43 d7 3c 3f d2 f3 3d 4d 45 02 be 6f 20 ca bc
       0.026277095 0.11905336 -0.12721749 -0.024673669
000360 ac 8c 02 3e 8b c5 b4 bd da 17 82 bd ac 4f a3 3d
       0.12748975 -0.08826741 -0.063522056 0.079741806
000370 ce 02 be bd 1a 8f 65 bd a9 6c f6 bd 16 08 e5 bd
       -0.09277879 -0.056044675 -0.12032444 -0.11183183
000380 df e5 a5 ba 1b 5e 67 bd 6d 6d 26 bd 90 0c c5 3d
       -0.0012657008 -0.05648623 -0.0406317 0.09621537
000390 ba 37 00 3e 23 46 f7 bd 31 be 4c 3d 49 67 e5 3d
       0.12521258 -0.120739244 0.04998607 0.11201341
0003a0 7b 65 04 3c 6c f6 81 bd cb aa 84 bd 0c 63 8e bd
       0.008080835 -0.06345829 -0.06477889 -0.069524854
0003b0 82 3f 50 3c 51 6d 97 bd 8c 12 a1 bd 47 ea e9 bc
       0.012710454 -0.07393897 -0.07864866 -0.028554095
0003c0 6f d7 62 3d 4c 35 08 3e 5c 5a 06 3e 3b 38 b5 3d
       0.055381235 0.13301581 0.13120407 0.08848616
0003d0 24 a5 d2 3c e7 6e df bc 55 cc c4 bc c6 1a b5 bd
       0.02571351 -0.027274562 -0.024023214 -0.08842997
0003e0 58 52 28 bd c9 ff b8 bc af 98 d8 3b 24 14 ee 3c
       -0.041094154 -0.022582905 0.006609998 0.029062338
0003f0 07 b0 c6 bd f1 e3 34 bd ca c5 8d 3d c6 d9 96 3d
       -0.09701543 -0.044162694 0.06922491 0.07365756

weight f4 [256]
000000 22 9a 13 3f 7e f9 d2 3d 28 3f c1 3e f4 00 a0 3f
       0.57657063 0.10301493 0.37743497 1.2500291
000010 0a 49 af 3f f9 2a b7 3e 04 ab a0 3f 24 3d 6f 3f
       1.3694165 0.35774973 1.255219 0.9345267
000020 e2 b3 91 3e b5 c8 2d 40 c6 07 1c 40 9c a1 40 40
       0.28457552 2.7153752 2.4379745 3.0098639
000030 30 03 90 3f 71 36 8f 3f 61 69 9f 3e cd bd 3b 40
       1.1250973 1.1188489 0.31135085 2.9334595
000040 1a 22 ac 3f c8 e6 e7 3e 8c 38 04 3e 05 8f 2f 3f
       1.3447907 0.4529326 0.12912196 0.68577605
000050 92 c5 cd 3f 09 da 06 3f da 19 b8 3f a6 e7 75 40
       1.6075919 0.52676445 1.4382889 3.8422637
000060 60 5c 9b 3e 37 ad 44 40 d5 d0 51 3f 04 ec 13 3d
       0.30343914 3.0730722 0.8195928 0.036113754
000070 24 01 56 3e 20 4a 70 40 4b f4 8b 3e 28 ce ca 3f
       0.20898873 3.7545242 0.27334818 1.5844164
000080 71 c2 e5 3f 9b 37 df 3e f7 9a 22 40 6d af 59 40
       1.7949964 0.4359711 2.5407083 3.4013321
000090 6f 26 2e c0 c5 3b 30 3f fe a0 b7 3f e4 e8 19 40
       -2.7210958 0.688412 1.4346006 2.4048395
0000a0 15 c3 ef 3f 92 cf b0 3e 5f ab 96 3f 6c a0 91 3e
       1.8731409 0.34533364 1.1771048 0.28442705
0000b0 4d 0b 6a 40 9e 11 e5 3e 11 f4 2d 3f ab 41 99 3f
       3.6569397 0.44740003 0.6795054 1.1973165
0000c0 f7 77 94 3e 95 fe 86 3e c1 c3 3e 3f 21 6b 95 40
       0.28997776 0.26366106 0.74517447 4.6693273
0000d0 bf 1f ec bd 4a 62 ac 3f 98 51 8e 3f 38 43 af 3f
       -0.115294926 1.3467495 1.111865 1.3692389
0000e0 86 9b d4 3e aa c4 84 3f 83 25 2c 40 25 22 9c 3f
       0.41524905 1.0372517 2.6897895 1.219792
0000f0 4c ed 05 3e 56 21 e0 3e 8f b4 23 40 03 67 19 3f
       0.13078803 0.43775433 2.5578954 0.5992281
000100 b8 14 03 40 6f 19 74 3e c0 5a 97 3f 29 f7 8a 3f
       2.0481396 0.23837827 1.182457 1.0856677
000110 40 6d 9a 40 c6 8e 58 40 b4 60 ef 3f 05 eb 38 41
       4.825836 3.3837142 1.8701386 11.557378
000120 34 ff a1 3f f5 a3 6d bd 25 4c 9e 3f 42 46 95 40
       1.2656007 -0.05801769 1.2366987 4.6648264
000130 8f 83 cb 3f af 6a 8d 40 3c 63 fe 3f d6 d6 ed 3f
       1.5899523 4.419273 1.9874034 1.8581188
000140 d1 d3 64 40 2c b8 b1 3f 21 9b 20 3f 22 10 fa 3f
       3.5754282 1.388433 0.6273671 1.9536173
000150 3c d1 90 3f 0e 8f 65 3f 6b d4 8f 40 8c 9c 90 3f
       1.1313853 0.8967141 4.49468 1.1297774
000160 59 20 bc 3f 97 00 50 40 b8 39 00 40 b9 12 88 3f
       1.4697372 3.250036 2.0035229 1.0630714
000170 dc d0 13 40 24 21 08 40 f9 a2 90 40 a3 7c e9 3e
       2.3096228 2.1270227 4.519894 0.45602903
000180 73 73 9b 3f eb a9 91 3f ef b3 a1 3f 3d b1 49 40
       1.2144607 1.137998 1.2633036 3.1514428
000190 29 db 87 3f eb 4f 0d 40 02 68 03 bf 98 4a 25 41
       1.0613757 2.2080028 -0.5133058 10.330711
0001a0 11 c0 f9 3f fb 91 94 40 ea a3 28 3f 68 d6 0a 41
       1.9511739 4.64282 0.65875113 8.677345
0001b0 ce 98 62 3f 5c d3 ec 3f 77 b0 b1 3f ea 25 b2 3f
       0.8851441 1.8502002 1.3881978 1.391782
0001c0 9a bb 05 40 f9 bc 8a bd 75 5a d3 3f fa a6 3e 40
       2.0895753 -0.06774325 1.651198 2.9789414
0001d0 7d 1a 8e 3f ad 95 b9 3f a0 09 88 40 e5 97 1b 3e
       1.1101834 1.4498802 4.251175 0.15194662
0001e0 94 70 e0 3f 6c 60 b0 40 3c 68 04 41 cb 9f 4b 40
       1.7534356 5.5117702 8.275448 3.181628
0001f0 57 ae d6 3f 41 f7 c4 3f 88 e5 12 41 75 40 a1 40
       1.6771954 1.5387956 9.181038 5.0391183
000200 5e 1f 14 40 52 cb b1 3f 60 66 41 40 96 f9 13 42
       2.3144145 1.3890173 3.0218735 36.993736
000210 64 a0 81 3f 90 7a 87 40 ac d9 51 40 c7 25 0d 40
       1.0127072 4.2337112 3.2789106 2.2054307
000220 d6 04 87 c0 f1 29 69 40 44 07 32 3e 07 ef ff 3f
       -4.2193403 3.643185 0.17385584 1.999482
000230 61 05 10 40 15 91 00 3e fc 65 82 40 38 4f 0c 40
       2.2503283 0.12555344 4.0749493 2.1923351
000240 a8 fa a1 3d 19 ed 12 bd 3c 70 ef 3d ab a8 f6 3f
       0.07909137 -0.035870645 0.11691329 1.9270223
000250 cd 2d bb bd 80 84 5b 3f 6d 53 02 40 4c 21 2e 40
       -0.09139595 0.85749054 2.036342 2.7207823
000260 95 bb a1 40 09 1f 89 40 74 43 36 3f 90 01 35 3f
       5.054148 4.2850385 0.71196675 0.7070551
000270 18 3a 2a 40 dc e3 46 40 07 89 c7 3f 16 4d 0d 40
       2.6597958 3.1076574 1.5588692 2.20783
000280 4b ed 09 40 54 04 5c 3f 34 22 42 40 8b 75 19 40
       2.1551082 0.85944104 3.0333376 2.3977993
000290 45 c9 1f 40 21 f2 11 40 6a a4 65 41 3c a1 8f 40
       2.4966595 2.2804034 14.35264 4.488432
0002a0 cd 0a 54 40 4a 16 48 3f e3 d5 63 40 af fd a5 40
       3.3131592 0.7815901 3.5599296 5.187217
0002b0 56 fd 4e be 80 8a 04 40 76 2c d8 3f 16 17 b5 3f
       -0.20213827 2.0709534 1.6888568 1.414767
0002c0 a5 77 76 bd 27 44 d4 3f 4c 5f bb 40 2d ad 9c 3f
       -0.060172696 1.6583298 5.855383 1.2240349
0002d0 99 f1 70 40 83 cd 18 40 c6 5f f1 3f 6d c8 a5 40
       3.764746 2.3875434 1.8857353 5.180716
0002e0 8b aa 40 40 8e c2 3f 40 81 9b 1c 40 e5 d0 d8 3e
       3.010409 2.9962497 2.4469912 0.42346874
0002f0 4f 4a c7 3f 9d cd 58 be 81 1b 63 3d fa ff f4 3f
       1.5569552 -0.21172185 0.05544615 1.9140618
000300 c1 26 a9 bb 7b 6e 70 3e 51 ad e9 3e 6f 35 5a 3e
       -0.0051620905 0.23479645 0.45640042 0.21309446
000310 31 cb c0 3e f1 b5 4e 3e 8d c6 cc 3e 7b 24 13 3f
       0.37655023 0.20186593 0.39995232 0.5747754
000320 42 7a 46 3e 06 b6 15 3e b1 34 0c 3e a7 67 4e 3d
       0.19382575 0.14620218 0.13691975 0.05039182
000330 c3 cc 97 3e 5f 68 ba 3e 8a 61 6a 3e 26 ea a3 3d
       0.29648408 0.36407754 0.2288877 0.08003645
000340 e3 c2 cd bc c8 8a fb 3d ba 58 c7 3e 0d dc 15 bf
       -0.025117343 0.1228233 0.3893488 -0.58538896
000350 18 bb 64 3e 0c 78 ac 3e bd d0 d9 3e 31 d7 76 3e
       0.22336996 0.33685338 0.42542067 0.24105527
000360 51 f8 8e 3e 23 56 4d 3d 9e 64 26 3f eb e1 0d 3d
       0.27923825 0.050130975 0.6499728 0.03463928
000370 36 64 49 3f a5 65 58 3e 78 d9 8c 3e b3 93 86 bd
       0.78668535 0.21132524 0.27509665 -0.0657114
000380 1e 0d d8 3e c7 15 fa 3e 33 3f 0f 3f 88 8d c9 3e
       0.42197508 0.4884474 0.5595581 0.39365792
000390 2e 47 a7 bc 56 b9 25 3e bc b0 c4 3e 36 8c 90 3e
       -0.020419683 0.16183981 0.38416088 0.28231972
0003a0 d4 13 a6 3e f4 67 18 3f c8 c8 89 3e 42 c4 c4 3e
       0.32437003 0.5953362 0.26910996 0.38430983
0003b0 d0 89 8b 3d b3 d8 5a 3e 6a 4b 80 3e 42 47 4e 3e
       0.06813395 0.21371727 0.25057536 0.2014437
0003c0 8d c0 da bd 7b f2 80 3e 84 70 c5 3d 3c e8 49 3e
       -0.106812574 0.25184998 0.09640601 0.19717497
0003d0 9f 90 04 bd 9f 81 0b 3f 86 bc 68 3f ad 05 59 3e
       -0.032364484 0.5449466 0.90912664 0.21193571
0003e0 b3 9c bb 3e b6 9f 03 3e 54 ff 9b 3e c0 b7 0a 3f
       0.3664299 0.12853894 0.30468237 0.5418663
0003f0 b1 eb a0 bc a2 b0 58 3e a4 99 93 bd 22 c5 38 3f
       -0.019643636 0.2116113 -0.07207039 0.721758

bias f4 [256]
000000 ee 0e b9 bf 22 56 3b c0 e6 bf 24 3f 15 27 2a c0
       -1.4457681 -2.9271321 0.64355314 -2.6586354
000010 fd a6 90 c0 4c e5 15 bc 2c 49 a2 bf 8f 3c eb bf
       -4.5203843 -0.009148907 -1.267858 -1.8377856
000020 91 06 bb 3f 28 21 58 c0 2c bd 97 c0 d3 27 fa bf
       1.4611379 -3.3770237 -4.7418423 -1.9543403
000030 d5 71 04 c0 ae 75 2b c0 15 77 b5 3e 39 2c 56 c0
       -2.0694478 -2.6790576 0.35442415 -3.3464491
000040 80 0b f6 bf c2 82 df 3d a3 32 b4 3e e7 9e 5e bf
       -1.922226 0.10913612 0.35194883 -0.86961216
000050 01 7f 5c c0 87 2d 01 3c 91 f4 89 bf 9a c1 a8 c0
       -3.4452517 0.00788439 -1.0777761 -5.273633
000060 f8 60 b8 3d a2 56 4a c0 18 5e 05 be 9b 25 74 3f
       0.0900287 -3.1615376 -0.13024175 0.9536988
000070 c3 c9 84 bf 0c 99 9a c0 d0 84 42 3f 8a 8e 68 bf
       -1.0374073 -4.8311825 0.75983906 -0.908425
000080 9a ad 19 c0 5f cc 3e be 52 ef 51 c0 44 20 1e c0
       -2.4012208 -0.18632649 -3.280232 -2.4707193
000090 1b 71 7f c0 8e 42 37 bf 69 95 3c c0 45 93 31 c0
       -3.9912784 -0.7158593 -2.9466193 -2.7746136
0000a0 f2 c6 08 c0 40 de 05 c0 59 82 3b bf 05 1a 82 3f
       -2.1371427 -2.09169 -0.7324577 1.016419
0000b0 2b 89 4a c0 47 cf 32 be cd 21 24 3c f0 59 fa bf
       -3.164622 -0.17461883 0.010017824 -1.9558697
0000c0 c3 ca 40 3e 37 9c 50 bd f4 0e 19 bf e5 86 53 c0
       0.18827347 -0.050930228 -0.5978844 -3.3051083
0000d0 8b f3 f6 bf 1d 9b 2d c0 33 d4 b8 bf e9 56 d2 bf
       -1.9293073 -2.7125924 -1.4439758 -1.6432773
0000e0 56 df 8e 3e 65 b9 10 bf 51 08 40 c0 c6 ae 07 c0
       0.27904767 -0.5653289 -3.0005076 -2.1200423
0000f0 ed 8e 0c 3e ec 4f bd 3f d2 c2 1e c0 67 f5 cb be
       0.13726397 1.4790015 -2.480641 -0.39835665
000100 c8 3f 07 3f 71 d7 4b 3f f7 08 b1 3f 15 dc 65 40
       0.528317 0.7962561 1.3830861 3.5915577
000110 50 7c 17 c0 fe 73 f3 3f 9f a0 02 40 8a 80 af 3f
       -2.3669624 1.9019773 2.0410535 1.3711102
000120 d3 26 14 40 df d2 9f 3f 35 ac f9 3f e4 e3 0f 40
       2.3148696 1.2486228 1.9505678 2.2482843
000130 2f 11 6e 40 89 3a e7 40 9e a4 32 40 1c 3a 0e c0
       3.7197988 7.2258954 2.7912974 -2.2222967
000140 70 35 c6 3e 61 34 b2 3f 72 d5 a2 bf 85 ac db bf
       0.38712645 1.3922235 -1.2721388 -1.7162024
000150 32 d7 fe 3f 17 45 36 3f 88 5b a9 bf 10 2c b9 3f
       1.9909422 0.7119917 -1.3231058 1.4466572
000160 b8 f7 12 c0 69 ee a3 40 7f b1 ce 3f 9f de d4 3f
       -2.2963696 5.122853 1.6147918 1.6630439
000170 b4 ca 37 40 0c 91 58 c0 68 2b 3a 40 2a 36 b8 be
       2.871747 -3.383853 2.9088993 -0.35978824
000180 43 fb bc bf 16 4b 06 c0 65 b8 0d 40 85 1b 8a c0
       -1.4764179 -2.098333 2.2143795 -4.3158593
000190 48 15 dd 3f 20 a3 03 bf 9f 18 b4 bf 92 30 20 3f
       1.727212 -0.51420784 -1.4070014 0.6257411
0001a0 c4 45 47 40 89 28 bc c0 4e af 8c 3f 0b d4 b3 3f
       3.1136332 -5.879948 1.0990999 1.4049085
0001b0 89 8d 09 bd 71 d3 96 3f 8b f9 f5 3e f0 ee 9b bf
       -0.033582244 1.1783277 0.4804195 -1.2182293
0001c0 24 ac 43 be a1 ca d3 3f ae bc c2 3f 3d b6 49 c0
       -0.19108635 1.6546212 1.521383 -3.151748
0001d0 21 29 d8 3f f3 57 c3 bf 13 f5 9e 40 cb 2b 1b 3d
       1.6887552 -1.5261215 4.9674163 0.03788356
0001e0 e6 fb 8f 3e 68 2e dd c0 75 c4 6d c0 53 3a 82 c0
       0.2812187 -6.911915 -3.7151158 -4.0696197
0001f0 12 73 2c c0 38 7f 61 3f ba 8c c0 bf c4 2f 62 c0
       -2.6945233 0.88084745 -1.5042946 -3.5341654
000200 21 9f ac c0 5a 7b dd 3f d4 ce f7 be d8 5a 6a c0
       -5.394425 1.7303269 -0.48399985 -3.6617947
000210 ba 89 b4 40 e4 0a 2a 40 13 25 b3 3e d8 ce 24 40
       5.6418123 2.6569147 0.34989223 2.5751247
000220 a7 91 f0 c0 fc 6c 6f c0 4c a6 a0 be 61 2a 7d c0
       -7.51778 -3.7410269 -0.31376874 -3.9557116
000230 1d 4f 0a 40 c0 a4 3e be b0 7a af 40 f6 51 10 c0
       2.1610787 -0.18617535 5.4837265 -2.2550025
000240 ad 68 d3 3f 0a cc d9 bd 6d 03 26 c0 ce 08 e2 3f
       1.651632 -0.106346205 -2.593959 1.7658937
000250 f4 c9 4a 3e f1 30 8c c0 4e c6 81 c0 ab ea 73 40
       0.19803602 -4.3809743 -4.055457 3.811198
000260 a3 3b b5 40 7c 34 ab 40 96 50 ab 3e 28 a7 7c c0
       5.66353 5.350157 0.3345992 -3.9477024
000270 1c bc 39 c0 fa ff 57 bf ba 54 30 c0 d6 30 6b c0
       -2.9021063 -0.84374964 -2.7551713 -3.6748557
000280 e2 8f 3f 40 e2 79 d9 3e 9d 1b ad bc eb ea 13 c0
       2.993157 0.42475802 -0.021131331 -2.3112133
000290 8c b8 b0 40 75 8b 44 40 19 e7 3e c0 ec 6c ed c0
       5.5225277 3.0710118 -2.982855 -7.419546
0002a0 2f 3f 8f c0 40 ef 32 3f ac 7c b2 3e 46 9e c1 3e
       -4.476463 0.69896317 0.34860742 0.37816066
0002b0 17 74 e9 3b 2d 2a 72 40 a5 22 4c c0 1e 66 8c bf
       0.0071244347 3.7838242 -3.1896145 -1.0968664
0002c0 f6 eb b6 3e 94 d5 26 c0 91 a4 ab 40 75 95 ee bf
       0.357269 -2.6067858 5.3638387 -1.8639361
0002d0 77 f5 59 40 e4 96 8b 40 12 f0 80 bf ad 62 be 3d
       3.405607 4.3621693 -1.0073264 0.09296165
0002e0 e0 f6 89 c0 ea da 56 40 20 b3 60 c0 f2 c4 27 3d
       -4.311386 3.3571115 -3.510933 0.040959306
0002f0 55 39 18 40 ae 22 19 40 4d af 46 40 b0 7a 61 c0
       2.3784993 2.3927417 3.1044495 -3.5231133
000300 f7 b6 45 37 22 72 ae 36 5c e9 b4 39 1b 4f 8f b8
       1.1784715e-05 5.198891e-06 0.00034506142 -6.833506e-05
000310 5f 4c 9e 38 7b a3 f5 37 bb c3 8d 38 df 8c c8 b9
       7.548252e-05 2.9282402e-05 6.7598616e-05 -0.0003825193
000320 ad 56 25 39 88 b4 07 39 15 be 82 b8 de af de b8
       0.00015767915 0.00012941856 -6.2342886e-05 -0.00010618543
000330 0a b3 86 b8 66 3a 0f 3a 23 fc 85 37 fe 10 8b 39
       -6.4229665e-05 0.0005463719 1.5972246e-05 0.00026524806
000340 b7 0d 03 b9 a4 11 57 37 1b 06 88 b8 3f 47 5a b9
       -0.00012498243 1.2819106e-05 -6.4861226e-05 -0.00020816641
000350 0a 6c dd 38 df e8 9a b8 a2 ce 99 38 e2 93 06 b9
       0.00010558225 -7.386668e-05 7.334097e-05 -0.00012834326
000360 2a ff 41 38 34 d2 63 b9 2b 0d 94 b9 ae d8 04 b8
       4.6252426e-05 -0.00021726714 -0.0002823857 -3.167305e-05
000370 75 2a dc b9 08 0a 13 ba f6 6c 63 38 53 88 23 b9
       -0.00041993303 -0.00056091 5.4222495e-05 -0.00015595676
000380 85 71 46 38 72 4c 1a b9 ec 51 68 38 62 7c c0 b8
       4.7312602e-05 -0.00014715063 5.5389406e-05 -9.1784415e-05
000390 dd 1b 1f b8 0f f8 56 b9 c7 29 97 b8 3b f4 aa 39
       -3.7934504e-05 -0.0002050104 -7.208023e-05 0.00032606893
0003a0 b7 45 70 38 cb 81 6c 39 01 dc b5 38 24 38 1a b8
       5.7285386e-05 0.00022555066 8.6717315e-05 -3.6768746e-05
0003b0 3a a2 d9 b8 47 86 c3 39 d9 0a 07 3a a5 02 62 39
       -0.000103775834 0.00037293343 0.0005151458 0.00021554025
0003c0 19 26 0b b9 a2 46 88 39 bc 04 64 38 9b 06 f1 b8
       -0.00013270265 0.00025992567 5.4363845e-05 -0.00011493006
0003d0 2c 31 13 39 f2 15 98 b9 37 48 b0 38 00 e4 89 b9
       0.0001403733 -0.0002900805 8.405785e-05 -0.0002630055
0003e0 79 7a 54 3a 0f 25 cd 38 d5 a4 91 ba 9c 16 14 b8
       0.0008105408 9.7820644e-05 -0.0011111746 -3.5307006e-05
0003f0 5c fd 00 b8 cb 08 68 38 34 b1 3d b8 20 7a 03 3a
       -3.0753537e-05 5.53213e-05 -4.5226145e-05 0.00050154515

running_mean f4 [256]
000000 45 1c 25 c0 e4 20 1f bf fb b0 85 bf d4 f0 ae bf
       -2.5798504 -0.6215956 -1.0444635 -1.3667245
000010 6e d9 5d be 5a 6b 24 3f 3c ce a6 3f be 12 92 bf
       -0.21664974 0.64226305 1.3031688 -1.141197
000020 43 f7 65 c0 a5 f6 b9 3f 25 d4 2d be fe 85 9f 3f
       -3.5932167 1.4528395 -0.16975458 1.2462766
000030 10 7b ad bf 25 a8 df bf 50 3d fb 3d e8 b8 5a bf
       -1.3553181 -1.7473189 0.12267554 -0.85438395
000040 da 63 cc bf 2e fc 22 40 a4 80 a8 bd f0 ab a8 3f
       -1.5967972 2.5466418 -0.08227661 1.3177471
000050 69 45 ca 3f a8 77 fd 3f cb 30 da 3f 11 29 04 40
       1.5802432 1.9802141 1.704614 2.0650065
000060 31 54 9b be 31 7a a7 bf 05 4d fe 40 3c f3 40 bf
       -0.3033767 -1.3084165 7.946902 -0.75371146
000070 e2 11 f4 3e b7 8c fa be 4b 08 47 c0 73 fb 03 c1
       0.47669894 -0.48935482 -3.1098812 -8.248889
000080 51 e3 0c 40 34 bd 5b 40 dc 51 62 3f c4 b7 a0 bf
       2.2013743 3.433423 0.8840616 -1.2556081
000090 27 c9 2f 3f 2a 5c 15 3f ee 41 3a c0 f7 50 1c 3d
       0.6866631 0.58343756 -2.910274 0.03816315
0000a0 84 f0 d5 be e5 96 c8 bf 66 36 e1 3e ce d3 1b 3e
       -0.4178506 -1.5671049 0.43986815 0.15217516
0000b0 78 17 3c bf df 4d 57 be 60 d7 78 be 82 fd c8 3f
       -0.7347331 -0.21025799 -0.24300909 1.5702364
0000c0 10 89 41 bf a6 a5 5c bf 8a dc c1 3f d0 8e e5 bc
       -0.75599766 -0.8619026 1.5145428 -0.0280222
0000d0 78 c1 40 bf 8a 88 04 be 1e de 2a 40 82 55 64 40
       -0.7529521 -0.1294271 2.669807 3.567719
0000e0 e9 ec 21 3e 2f 4d 20 40 7d e6 ed be 0b 6a f8 3c
       0.1581303 2.504711 -0.4646491 0.030324003
0000f0 4a f4 26 40 6f fe f8 3e 4a 39 1f 3f 2c 98 de 3f
       2.6086602 0.48631617 0.6219679 1.7390189
000100 65 3f 86 3f 14 97 43 bf 04 ca d5 3f 4d f1 86 3f
       1.0488096 -0.764024 1.6702275 1.0542389
000110 88 d7 84 bf d9 e1 04 3f 33 f1 06 bf 6e 60 cd be
       -1.0378275 0.51907116 -0.5271179 -0.40112633
000120 bd b3 a3 bf cf ab 78 bf 98 3d 58 c0 74 56 27 3f
       -1.2789227 -0.9713716 -3.3787594 0.6536629
000130 af dc 10 40 da 55 b6 bf 57 d9 17 c0 84 bb d4 3f
       2.2634695 -1.424495 -2.3726404 1.6619725
000140 c8 67 7b 40 21 87 3f 40 87 e2 44 40 3a a2 51 bf
       3.9282093 2.9926226 3.0763261 -0.81888163
000150 5c d7 b1 bd aa 53 05 40 7c 59 e3 c0 a0 60 cb 3e
       -0.08683655 2.0832314 -7.1046734 0.39722157
000160 65 4a e2 3f 85 c3 0c bf 66 84 8f bf 61 b8 6b be
       1.7678953 -0.5498584 -1.121228 -0.23019554
000170 8b ae 98 be fe 89 2a 3f 7d d5 e2 3f 8a 1b fb 3f
       -0.29820666 0.6661681 1.7721401 1.9617779
000180 00 94 73 3f f2 b2 15 c0 da 85 db bd ba 6c 4e 40
       0.95147705 -2.339047 -0.107188895 3.2253861
000190 6c 24 a5 3f 9b ed 23 c0 0b 09 54 c0 86 74 b0 be
       1.290174 -2.5613773 -3.313052 -0.344639
0001a0 43 29 02 c0 fc 43 68 41 15 96 68 3e b8 23 16 3f
       -2.0337684 14.516598 0.22713502 0.5864825
0001b0 31 72 e6 3d 89 47 33 bf 0a 17 c0 c0 97 36 a8 3f
       0.11252249 -0.7003103 -6.0028124 1.314166
0001c0 1c 5a dc 3f a8 b2 d2 3f 4f 18 39 bf 8a c6 5d 3f
       1.7214999 1.6460772 -0.72302717 0.8663107
0001d0 ff 4a ff bd 33 b0 a4 c0 c2 93 5a c1 26 99 03 c0
       -0.12465476 -5.1465087 -13.661074 -2.0562224
0001e0 ba 5d 75 be 8c 33 8d 40 08 ba 46 c0 6b 30 38 3f
       -0.23961535 4.4125423 -3.1051044 0.7194888
0001f0 ca a2 15 c0 c3 70 c8 3e 9b e5 c4 be 09 7e 77 bf
       -2.3380609 0.3914853 -0.38456425 -0.9667669
000200 3c fc 81 c0 42 57 0b c0 d1 1c 3f 40 2d ba 82 3e
       -4.0620403 -2.1772008 2.9861338 0.25532666
000210 b6 d6 c4 3f af 8c 1f 40 62 a7 bc c0 c9 49 f1 bf
       1.5378025 2.4929616 -5.8954325 -1.8850642
000220 25 74 33 c0 94 7a a2 c0 ce d3 1c c0 c2 51 0e 40
       -2.803964 -5.077463 -2.4504275 2.22374
000230 c7 f9 1a 40 5d 76 34 c0 28 90 0e be ac 7e d0 bf
       2.4214952 -2.8197243 -0.13922179 -1.6288657
000240 71 36 99 3f de 49 1b 3f 33 cb 05 c0 97 88 84 40
       1.1969739 0.6065959 -2.0905273 4.1416736
000250 32 2a c7 3f d0 13 24 3f dc a0 1e c0 33 86 8c 40
       1.5559752 0.6409273 -2.478568 4.3913817
000260 ff f0 80 bf 09 a9 25 c0 85 e2 77 40 4e 39 49 3e
       -1.0073546 -2.588442 3.8732007 0.19650766
000270 77 c0 ca c0 37 33 15 bf 30 a8 c3 bf b0 fa 17 bf
       -6.3359942 -0.5828127 -1.5285702 -0.59366894
000280 fe 11 c6 bf 8f 69 cb 3f 8c 3b 28 3f 43 44 e5 3f
       -1.5474241 1.5891589 0.6571586 1.7911457
000290 01 6d 9d 3e c3 fa fe be e3 21 6f bc c4 75 91 3e
       0.30747226 -0.4980069 -0.014595482 0.2841016
0002a0 ff 20 fd 40 4a cf a6 3f 22 45 df 3f 96 5e 19 c0
       7.910278 1.303201 1.7442973 -2.396398
0002b0 61 82 26 3f 09 00 c1 3e b2 17 c1 3f fa ea 2b 40
       0.6504269 0.3769534 1.5085356 2.6862168
0002c0 95 81 c6 bf f8 a8 36 c0 57 b8 bf bf 02 7f 51 40
       -1.5508295 -2.854063 -1.4978131 3.273377
0002d0 b3 eb 43 c0 68 09 87 c0 70 b6 e7 3e 6a 30 92 3f
       -3.061261 -4.219898 0.45256376 1.1421025
0002e0 b2 4b 59 40 1e d8 52 c0 33 3c 5f bf cd 58 cf bf
       3.395245 -3.2944407 -0.8720123 -1.6198975
0002f0 48 ee 2f c0 9f 5e 11 c0 d6 dd 24 c0 b5 65 19 c0
       -2.7489185 -2.2714002 -2.5760398 -2.3968327
000300 69 85 0d bf 86 f0 31 bf fe 3c 9f 3f 16 13 fa 3e
       -0.5528169 -0.69507635 1.2440488 0.48842686
000310 69 45 07 40 5a 68 a8 3d 57 85 a4 3e 74 ec 2c bf
       2.1136115 0.082230285 0.3213298 -0.675483
000320 67 9e 76 40 07 fe d2 3f 68 d8 85 3f 6c ad 9d bf
       3.853418 1.6483773 1.0456667 -1.2318549
000330 fd 87 6a 3e 24 e7 34 bf eb 1f 38 c0 5d b2 88 c0
       0.22903438 -0.7066519 -2.876948 -4.271773
000340 94 f0 68 3f 5c 60 13 40 00 68 cd bf 26 e9 85 40
       0.90992093 2.3027563 -1.6047363 4.1847105
000350 1a 71 74 c0 b0 5e 5a 3e a9 11 e0 bf 2e b4 37 bf
       -3.8194032 0.21325183 -1.750539 -0.7175931
000360 9b cc 03 40 b0 12 8b bf b3 34 fb 3f a9 01 bc 3e
       2.0593631 -1.0865078 1.9625458 0.36720017
000370 77 64 20 40 4e 85 44 3e d4 de 1c c0 f2 4f 12 3f
       2.506132 0.19191477 -2.4511003 0.57153237
000380 6f 36 d1 3e bc 30 b3 3d c2 bb 24 3f d5 9d 9d 3f
       0.40861842 0.0874953 0.64348996 1.2313792
000390 8c 64 cf bd 0b 2b 50 3e 32 94 8a 40 52 21 6e 3e
       -0.101266 0.2032892 4.3305902 0.23254898
0003a0 54 68 e9 be e5 bf 43 c0 f0 8b b5 40 66 b9 c0 3d
       -0.4558741 -3.0585873 5.673332 0.09410362
0003b0 af 87 ad 3f 00 1f de 3e e2 d8 23 40 7b 84 d9 3e
       1.3557032 0.43383026 2.5601125 0.42483887
0003c0 d5 86 a5 3f 3d 00 00 40 3d 70 17 3f b3 cb 44 c0
       1.2931772 2.0000145 0.5915564 -3.0749328
0003d0 d7 f0 28 40 8f ab 8b 3f ce 77 70 c0 a7 80 23 3f
       2.6396997 1.091173 -3.7573123 0.6386818
0003e0 d6 16 da 3f 04 4c c6 be a8 9a dc 3f 87 91 4f 3f
       1.7038219 -0.3872987 1.7234697 0.8108143
0003f0 f1 72 0c bf d0 a6 8c 40 b9 46 0e c0 1b 48 2b c0
       -0.54862887 4.395363 -2.2230666 -2.676276

running_var f4 [256]
000000 a6 6d 92 3e b4 29 4c 3e b0 00 e2 3e 78 8c d7 3e
       0.2859928 0.19937783 0.4414115 0.42099357
000010 be 26 69 3e 1a de 65 3f 3b 82 91 3e b5 4b b2 3e
       0.22768685 0.89792025 0.2841967 0.34823385
000020 42 c2 aa 3e af da 04 40 92 11 ad 3e e0 85 06 41
       0.33351332 2.0758474 0.33802468 8.407684
000030 54 53 ee 3e a2 eb e5 3e b9 48 cf 3e 7f 42 8f 40
       0.4654795 0.44906336 0.4048517 4.476867
000040 24 06 bc 3e c0 f6 a7 3e 1f cf 5f 3e 76 91 c4 3e
       0.36723435 0.32805443 0.21856354 0.38392228
000050 2a 27 66 3f bf 0f 17 3f 17 69 19 40 a7 12 e0 3e
       0.8990351 0.590084 2.3970392 0.4376423
000060 b3 11 b8 3d 2d 7c 06 40 0e 73 e1 3f 41 a5 b6 3e
       0.08987751 2.101329 1.7613237 0.35672954
000070 73 6b b1 3e 4a 52 a5 40 4d a9 1f 3e 23 db 01 3f
       0.3465229 5.166295 0.15591927 0.50725
000080 b8 64 28 3f 28 ea 75 3f 02 b4 72 3f 56 c7 1a 40
       0.65778685 0.9606042 0.9480592 2.4184165
000090 88 ef 55 3e d9 4d 2c 3f a9 47 ee 3e 1b ed 89 3f
       0.20892155 0.67306286 0.46539047 1.0775484
0000a0 d8 93 0d 3f cd 2f 90 3e 65 26 b8 3d 97 8e 5a 3e
       0.55303717 0.2816147 0.08991698 0.21343456
0000b0 9b 46 40 41 f2 a9 bf 3f f2 67 fa 3e 8c 59 d6 3f
       12.017238 1.4973738 0.4890743 1.6746078
0000c0 1a 6d 24 3f ac 7f 2a 3e b1 e4 33 3f 5d c7 a1 41
       0.64228976 0.16650265 0.7027083 20.222345
0000d0 ab c8 f9 3e cb f6 c8 3e bd ef d1 3f 60 2c 01 3f
       0.4878591 0.39250788 1.6401287 0.50458336
0000e0 56 79 0a 3f 9e 73 a8 3e de 11 9f 3f 32 41 a9 3e
       0.54091394 0.3290071 1.2427328 0.33057553
0000f0 44 b5 90 3e 8c f3 67 3e 6f d6 50 3f d8 5f ba 3e
       0.28263295 0.226515 0.815772 0.36401248
000100 3c 98 20 40 c6 dd 1f 3f 0c 4a f7 3d 29 a4 0f 3d
       2.5092916 0.62447774 0.1207467 0.035068665
000110 4d 65 1a 41 a8 a3 a8 40 ac 0b b6 3e 3e b9 da 3f
       9.649732 5.2699776 0.3555578 1.7087781
000120 b9 e8 49 3d 77 89 89 3e 94 87 d5 3e d3 48 d7 41
       0.049294207 0.2686269 0.41705 26.910559
000130 01 4b 4e 3e e5 74 e1 3e 31 c0 39 3e bc 22 89 3e
       0.20145799 0.44034496 0.18139721 0.26784313
000140 a0 69 b1 3e 0f fa 03 40 cd db a3 3e 34 19 b6 3f
       0.34650898 2.0621374 0.32003632 1.4226441
000150 d8 13 92 3e f3 c8 89 3f 7e a2 b6 41 75 6c c2 3d
       0.28530765 1.076445 22.829342 0.09493343
000160 69 13 61 3e 59 c5 09 41 ad 7e 46 3f db 5d 8b 3d
       0.2198006 8.610681 0.7753704 0.06805011
000170 47 8c af 3e 56 bf a2 3e 13 6e 51 41 48 65 78 3e
       0.3428671 0.31786603 13.089374 0.24257386
000180 a7 dc a8 3e b8 03 bf 3d ea 6c 72 3e 22 b3 2a 40
       0.32980844 0.09326881 0.2367436 2.6671834
000190 30 e3 f3 3d 01 cb 28 40 b2 15 d2 3e f2 0c c6 40
       0.11908567 2.6373904 0.41032177 6.18908
0001a0 e4 05 a4 3e 67 93 98 41 79 0c 36 3d 8f 71 31 41
       0.32035744 19.071974 0.04444549 11.090224
0001b0 41 f5 b0 3d 87 a1 0b 3e 4b a5 cb 3f 1f ea 73 40
       0.086405285 0.13635837 1.5909818 3.8111646
0001c0 7b d1 2c 3e 54 02 10 3f dd 60 c4 3e 2f b4 88 40
       0.16876785 0.5625355 0.3835515 4.271995
0001d0 86 d7 19 3e 5a 7f 20 40 b2 47 84 41 08 d1 56 3f
       0.15023622 2.507773 16.535007 0.83912706
0001e0 47 14 a3 3e 8f f2 c1 3f 14 5a 16 42 4c 7b 8a 3e
       0.31851408 1.5152148 37.587967 0.27047193
0001f0 6d 6e 15 3e ab 67 05 40 4b d4 00 3f 46 de 44 41
       0.14592905 2.0844524 0.50323933 12.304266
000200 a1 d4 30 3f e8 ab 8e 3e e0 40 d3 3f 2b 2c 85 40
       0.69074446 0.2786553 1.6504173 4.1616416
000210 ae 38 c2 3e 6c c2 88 41 c0 cf c9 3f c6 70 9d 3e
       0.37933868 17.094933 1.5766525 0.30750102
000220 80 d9 c1 3d eb 7c 7a 3f d1 b3 98 3e b8 59 55 3e
       0.09465313 0.9784686 0.2982469 0.20835006
000230 58 df 80 3e 07 18 23 3e 1b 6c a6 3e 2f 27 2d 3e
       0.25170398 0.15927134 0.32504353 0.16909479
000240 1f 75 6a 3f b8 4b 9c 3e 59 46 f3 3e d6 ee f7 3e
       0.9158496 0.3052652 0.47514609 0.48424405
000250 17 75 bd 3e bc 24 87 3e 7d 92 f9 3e b1 9a 33 3f
       0.37003395 0.26395214 0.48744574 0.70157915
000260 83 a1 0a 3f e6 4c 8e 3f 49 52 1e 3e 1c fd 20 3f
       0.541527 1.1117218 0.15461077 0.62886214
000270 c0 bf 55 40 56 38 71 40 b0 de 23 3d ce b1 30 3d
       3.3398285 3.7690635 0.040007293 0.043138318
000280 43 27 e2 3e 24 4c e9 3e 39 cf 18 3f 81 c3 10 3e
       0.4417058 0.45565903 0.59691197 0.14137079
000290 a6 7a a6 3e 44 5f 55 3f 0e 3d e2 3f c0 6c 42 3d
       0.32515448 0.8334849 1.7674882 0.047466993
0002a0 d9 ed 7c 3f 74 26 eb 3d 40 82 ba 3f a2 bb 64 40
       0.98800427 0.11481944 1.4570999 3.5739522
0002b0 8b da 75 3f e3 c1 4c 3e 4c 2d 77 3e 3e 6b 33 3f
       0.96036595 0.19995837 0.24138373 0.70085514
0002c0 e9 36 6a 3f e0 34 01 3e 4b 10 ec 3e 30 00 81 3f
       0.91490036 0.12617826 0.4610618 1.0078182
0002d0 71 e5 a9 3f 74 d0 1a 3e e5 4b 17 40 14 fc bb 3e
       1.3273145 0.15118581 2.3640072 0.36715758
0002e0 b5 56 1f 40 b0 a7 6c 3e e5 2c 93 3f cb 15 9c 3d
       2.4896672 0.23110843 1.1498076 0.07621344
0002f0 43 f0 f3 3d 58 6b 16 3f ab b3 03 3f b4 05 0b 3e
       0.11911061 0.58757544 0.51446027 0.13576394
000300 4d 29 79 3f 04 37 8b 3e 50 8c 94 3f 41 cc 0c 3f
       0.97328645 0.2719041 1.160532 0.54999167
000310 b2 80 23 3e f7 cc d8 3e 05 49 0a 3e 1c 0f 94 3e
       0.15967062 0.42343876 0.13504417 0.28917778
000320 7b 9c f0 3d e9 cb 82 3f 5a ac 47 3f 47 96 b3 3e
       0.11748596 1.0218478 0.7799736 0.3507559
000330 2e 6f a1 3e a9 ce da 3d a7 32 20 3f 0b fd a8 3f
       0.31530136 0.106839485 0.6257729 1.3202223
000340 6a d9 7e 3f 73 f0 19 3f cc be f5 3e df 14 03 3f
       0.995505 0.6013252 0.4799713 0.5120372
000350 b4 46 4c 3e 5f eb 67 3e e8 51 7f 3e 7a e6 d1 3d
       0.19948846 0.2264838 0.24933589 0.10249038
000360 ca 0a 7e 3e 04 da fe 3e 2e f9 41 3f 8d 31 18 3f
       0.24808803 0.49775708 0.75770843 0.5945061
000370 70 e3 c5 3f 05 9d 92 3e 10 df 8d 3e ba 68 4e 3e
       1.5460033 0.2863542 0.27709246 0.20157138
000380 9d 56 89 3e 60 e7 22 3f 84 9f c3 3e fd 1d fb 3e
       0.26823893 0.636343 0.38207638 0.49046317
000390 4b c3 fd 3e ff 1a 8d 3e f7 12 3d 3f 84 08 9b 3d
       0.4956306 0.2755966 0.73857063 0.075699836
0003a0 08 83 66 3e 51 e5 95 3e 9f a5 11 3f 66 6a 13 3e
       0.22510922 0.29276517 0.5689334 0.14396057
0003b0 04 f3 9f 3e 9a 69 6d 3e 11 d8 8f 3e de 00 2d 3e
       0.31240094 0.23184815 0.28094533 0.16894862
0003c0 1d 34 b9 3d f3 f5 f2 3e bd f9 e5 3e 4a a3 cc 3f
       0.09043143 0.4745327 0.44917098 1.5987332
0003d0 14 aa 9c 3f ae d1 b6 3e 56 d0 18 3f 5a 0c db 3e
       1.2239404 0.35706848 0.59692895 0.4278286
0003e0 ee f1 10 3f 67 8c b2 3e d5 5c af 3e 62 09 3c 3f
       0.56619155 0.34872743 0.34250513 0.7345182
0003f0 9d d8 8a 3e a7 74 cb 3e 74 6e 15 40 01 d5 32 3f
       0.27118388 0.39737436 2.3348665 0.6985627

weight f4 [128, 256]
000000 bf 87 ae 3d 43 a4 93 bd c0 dd 1f 3e 57 b1 14 be
       0.08521985 -0.07209065 0.15611935 -0.14520775
000010 18 ae 44 bd 26 bd 1c bd 27 ad 7b 3d 8c da ef bd
       -0.04801759 -0.038266324 0.061444428 -0.117116064
000020 af 5d 34 be bf 78 01 3e c5 4e 80 3e f5 f9 94 3e
       -0.17613862 0.12643717 0.25060096 0.29096952
000030 c6 a8 f1 bb 88 63 a7 be 04 1d 40 3e d4 4e 4d 3e
       -0.0073748557 -0.32693124 0.18761069 0.20049602
000040 fa f0 a9 3d 85 32 95 bd 04 0a 0e be 67 d9 d5 3c
       0.08297916 -0.072850265 -0.13871008 0.026104642
000050 e7 d8 38 3d 50 f6 4c be f0 3a 16 be b9 ec 69 3f
       0.04512873 -0.20015836 -0.1467092 0.91376835
000060 5d 94 f5 bc ab 54 15 3e 75 21 29 be 79 83 aa bc
       -0.029977972 0.1458308 -0.16516669 -0.020814644
000070 fa 41 f7 bd a1 da 1b be bf aa e6 3d 7d e8 60 be
       -0.12073131 -0.15220119 0.11263036 -0.21963687
000080 ac 25 bb 3c 15 e4 1e be 40 1f 80 3e 47 0a 2f 3f
       0.022845112 -0.15516694 0.25023842 0.68375057
000090 7c 1e c3 3d d0 bf 99 3d bc 4e 3d bd e4 2e 87 be
       0.09527299 0.075072885 -0.046217665 -0.26402962
0000a0 29 f7 3d be 6c 92 f9 3d 37 e4 b6 be 01 47 9e bc
       -0.18551315 0.12186131 -0.3572099 -0.019320967
0000b0 cf 48 30 3c e6 c6 fd bd 59 e3 1f bf 40 9f e0 3c
       0.010759546 -0.123914525 -0.6245628 0.027419686
0000c0 ac f3 99 3b b4 3a 42 3d c1 61 66 3f 0e c3 2a bf
       0.0046982374 0.047419265 0.8999291 -0.6670388
0000d0 77 91 be 3d a6 59 b5 3d 78 b0 1c 3c f2 3f af 3d
       0.09305089 0.0885499 0.009563558 0.085571185
0000e0 59 0c 6d be 20 14 55 3e ed c9 8b bc 20 bf 98 3d
       -0.23149242 0.20808458 -0.01706406 0.07458329
0000f0 45 46 68 3e d7 39 fb 3c c6 1b 37 3d 97 b5 16 be
       0.22683056 0.030667229 0.04470422 -0.14717709
000100 04 05 29 3e 76 68 14 be a8 e0 8f be 96 5f bb 3d
       0.1650582 -0.14492974 -0.28101087 0.09149091
000110 3e 26 1b be 1e 7d 12 3d a3 8b f4 bc 98 37 41 bd
       -0.15151307 0.035763852 -0.02985174 -0.04717216
000120 d8 9f d4 3d b9 41 6b be d8 db 4f be b2 79 b6 3e
       0.1038205 -0.2297429 -0.20298707 0.3563972
000130 f1 0a 3c be b5 46 84 be 60 21 53 be 06 28 c0 be
       -0.18363549 -0.25835195 -0.206182 -0.37530535
000140 00 6e 72 3d 20 f7 ea 3c 9d 04 45 3e c9 ff f7 bb
       0.059186935 0.028682292 0.19240041 -0.0075683338
000150 c1 9d 8a bd bc 90 01 3e f3 99 77 3d c5 d0 b1 bd
       -0.067683704 0.12652868 0.06044955 -0.08682398
000160 f5 82 cb 3e 08 bb e4 3c 1d 32 05 3e da 71 b4 3d
       0.3974835 0.027921215 0.13007398 0.08810778
000170 d3 c7 dc be 9b ea c3 3e 89 21 3c bd 2f 4c 7d bd
       -0.43121204 0.38264927 -0.04593042 -0.061840232
000180 d3 8a 51 3f 86 07 22 be e6 95 25 3e dc 2c 0e be
       0.81852454 -0.15823182 0.16170463 -0.138843
000190 36 58 d8 3b af 3d 0e 3f f4 83 c9 bc bf bb b7 3c
       0.0066023124 0.5556287 -0.024599053 0.022428392
0001a0 69 a1 83 3e 94 7d f4 3f aa a9 7c 3d 54 ce 2e be
       0.25709084 1.9100823 0.06168524 -0.17070895
0001b0 aa 54 86 39 81 b4 b2 be b8 f4 f8 3e 96 4a 2f bf
       0.0002562155 -0.3490334 0.48624206 -0.68473184
0001c0 ee 4a 78 bd 15 df 35 3e 40 64 41 be ec 56 de 3c
       -0.060618334 0.1776088 -0.18885899 0.027141057
0001d0 14 2c 59 3d 49 26 4b bf 8d ee 11 bf 3e 34 dd bd
       0.05302055 -0.79355294 -0.57004625 -0.1080098
0001e0 bb 52 4c 3c 7f ea f1 3e b8 5e 11 be 6f e7 9c 3e
       0.012470896 0.4724922 -0.14196289 0.3064532
0001f0 7f c3 95 be fa da 47 3f 1c 09 ce 3d b4 4f 86 bc
       -0.29250714 0.78068507 0.10060331 -0.016395427
000200 81 12 50 3e 3d 36 e0 be 46 d7 aa be b9 10 a0 be
       0.20319559 -0.4379138 -0.33367366 -0.31262758
000210 c1 29 4f 3e af 87 0a 3e cb 7c 91 be 45 69 4a 3d
       0.20230772 0.13528322 -0.28415522 0.0494168
000220 49 86 20 3e 8f 55 d6 3e 1f 92 a2 bc 2d 4d 06 bf
       0.15676226 0.4186215 -0.019845067 -0.5246151
000230 69 c6 b5 3e 9a e6 52 3e f7 61 6e bf c0 66 19 bf
       0.35502937 0.2059578 -0.9311823 -0.5992241
000240 77 c2 df 3d f0 d2 55 3e 75 4d 3e 3d 7f ce e4 bd
       0.10925763 0.20881248 0.046460588 -0.111721985
000250 27 47 2a 3e 74 30 ce 3d 05 39 47 3f 26 76 fe 3d
       0.16628705 0.100678355 0.7782138 0.12424879
000260 0a fb b2 be 28 5f 24 3f 3d 00 d1 bd 70 a8 03 be
       -0.34957153 0.64207697 -0.102051236 -0.12857223
000270 8c 2d df be 09 0f b4 bd 17 12 e0 bd 38 0c 88 3d
       -0.43589437 -0.0879193 -0.1094095 0.066429555
000280 fe 6f 01 be 5d 51 91 bd 7a d9 b5 be ba 61 4e bf
       -0.12640378 -0.07095597 -0.35517484 -0.8061787
000290 40 b6 02 3e a5 af f7 bd 63 1a 19 3e 8f 0e 6b 3e
       0.12764835 -0.120940484 0.14951472 0.22954772
0002a0 e7 31 11 be 16 6b 1c 3d bc 6e 48 3e 4a d1 1a 3f
       -0.14179192 0.038188063 0.19573492 0.604756
0002b0 7a 94 cb bd 97 db a4 3d 2b 8d a1 3d a0 30 ba 3c
       -0.09940429 0.08049696 0.07888254 0.022728264
0002c0 ef ff 3f 3e c8 6d 30 be d2 d3 43 3e d9 1f 5b 3e
       0.18749975 -0.17229378 0.19123772 0.21398868
0002d0 d9 03 10 be 6a a4 bd 3b 51 a9 60 3d 36 d0 dd 3d
       -0.14063968 0.005787422 0.054848973 0.10830729
0002e0 06 ea cb 3d e7 1b 63 bf 63 3a ee bb 29 5a 1e be
       0.09956746 -0.8871445 -0.007270144 -0.15464081
0002f0 56 59 9d 3e cc bb 91 bd 59 44 34 be 37 21 3b 3f
       0.3073222 -0.071158975 -0.17604198 0.73097557
000300 25 ee 1b 3f 91 56 26 3d 9c 0e 34 be 66 33 cd 3d
       0.60910255 0.0406099 -0.17583698 0.10019569
000310 eb 1a 53 3d 5e 7d 2a bd c3 cd 08 3e 8b 6f 07 be
       0.051539343 -0.041623466 0.13359742 -0.13226144
000320 23 0a 9b bd 52 6c 3e 3e 00 6c 80 be 74 01 e0 3d
       -0.07570293 0.18596008 -0.25082397 0.10937777
000330 ab d4 0b be 92 71 bc bd c3 eb e8 bd 8c 82 b8 3e
       -0.13655345 -0.09201349 -0.11373093 0.360371
000340 42 b9 79 bd d6 59 4d 3e 87 91 86 be ad b3 4d bd
       -0.06096769 0.20053801 -0.26282904 -0.05022018
000350 d9 ed b4 3d cf 16 30 be 92 df 09 be 1b 28 90 3c
       0.08834428 -0.17196201 -0.13464192 0.017597249
000360 7c 92 3b 3e 4e e5 b9 3e 19 85 39 be 70 ed 33 3d
       0.18317598 0.36307758 -0.18117179 0.04392761
000370 aa 1d e4 bc 84 95 ab 3c e3 7e 51 3d 50 c5 7f 3c
       -0.027846176 0.020945318 0.0511464 0.015611008
000380 e7 cb a7 be 54 aa 20 3d 4f 62 8e 3d 30 21 d9 bd
       -0.32772753 0.039224938 0.069523446 -0.10602033
000390 e8 08 9f 3d 1b 03 75 3d 4f 64 3b 3e e7 30 20 be
       0.077653706 0.059817415 0.18299983 -0.15643655
0003a0 7f a2 69 3f cc a6 1d 3e 1c 38 13 be 4b ec 70 bd
       0.91263574 0.15395659 -0.14376873 -0.058819097
0003b0 e0 4a 2b 3d 14 89 d2 3d 65 70 2a 3d 39 ae 40 bd
       0.041819453 0.10280052 0.041611094 -0.04704115
0003c0 18 63 33 be c6 be 3a 3e 6f 6f 99 3d 73 48 47 be
       -0.1751827 0.18236837 0.074919574 -0.19461231
0003d0 6d 60 5e bd 3b ac 19 3e bb b9 1e bd dd c4 62 3e
       -0.054291178 0.15007107 -0.038751345 0.2214541
0003e0 07 31 94 be 63 39 c1 bd 34 62 29 3e 72 82 27 3d
       -0.28943655 -0.09434774 0.16541368 0.040895887
0003f0 36 08 e7 bd d4 18 0f 3e aa d6 02 3e 04 9a 1c 3e
       -0.11280863 0.13974315 0.127772 0.15293127
